sample_data/mnist-12-int8.onnx (onnx, 10969 bytes, 7 tensors)

Parameter193_reshape1_quantized i1 [256, 10]
16 27 14 27 -16 -21 -6 -16
-16 6 -8 30 24 -26 34 -42
73 10 -18 -62 -33 21 15 -2
38 -84 0 -2 3 -51 3 5
47 37 -12 3 -18 -14 6 0
-26 26 18 21 -11 -5 19 -14
9 -29 -29 23 -29 -18 76 6
-28 34 -11 -83 56 39 68 27
-45 -87 -64 -4 -14 8 65 -51
67 5 13 -125 -11 8 -4 24
-22 6 -1 39 -5 -5 23 -8
6 4 -1 -11 -26 24 -28 65
-30 28 -15 -29 -6 9 32 9
-27 82 13 -74 5 -39 -17 -89
-62 53 -86 106 96 -18 19 -19
-7 -25 0 -1 -17 4 -12 -11
9 10 31 24 -32 2 10 3
-12 18 -26 3 -57 -7 -26 127
-12 96 28 -34 9 -45 -82 9
-4 65 -36 15 46 -49 29 -34
-21 1 37 30 -5 -52 4 11
-16 17 -23 12 -13 2 -34 21
-31 61 -25 1 -36 -22 15 59
-24 16 -12 23 13 -1 -7 19
8 -8 13 16 23 -11 1 13
-4 -16 40 44 -21 -70 -45 29
-8 0 -6 55 49 38 -67 -33
-84 127 -5 -7 10 -62 11 -60
-49 59 -17 61 -15 -10 15 -27
-79 -26 -12 94 28 6 -1 18
-31 -46 28 45 17 31 -9 51
-13 -30 -24 -1 -26 -13 30 51
00000000: 101b 0e1b f0eb faf0 f006 f81e 18e6 22d6
00000010: 490a eec2 df15 0ffe 26ac 00fe 03cd 0305
00000020: 2f25 f403 eef2 0600 e61a 1215 f5fb 13f2
00000030: 09e3 e317 e3ee 4c06 e422 f5ad 3827 441b
00000040: d3a9 c0fc f208 41cd 4305 0d83 f508 fc18
00000050: ea06 ff27 fbfb 17f8 0604 fff5 e618 e441
00000060: e21c f1e3 fa09 2009 e552 0db6 05d9 efa7
00000070: c235 aa6a 60ee 13ed f9e7 00ff ef04 f4f5
00000080: 090a 1f18 e002 0a03 f412 e603 c7f9 e67f
00000090: f460 1cde 09d3 ae09 fc41 dc0f 2ecf 1dde
000000a0: eb01 251e fbcc 040b f011 e90c f302 de15
000000b0: e13d e701 dcea 0f3b e810 f417 0dff f913
000000c0: 08f8 0d10 17f5 010d fcf0 282c ebba d31d
000000d0: f800 fa37 3126 bddf ac7f fbf9 0ac2 0bc4
000000e0: cf3b ef3d f1f6 0fe5 b1e6 f45e 1c06 ff12
000000f0: e1d2 1c2d 111f f733 f3e2 e8ff e6f3 1e33

Parameter193_reshape1_scale f4 [10]
0.0058861533 0.004556302 0.006064942 0.004600231 0.0060841544 0.0053733117 0.005781211 0.005875239
0.009339614 0.005980428
00000000: a2e0 c03b 084d 953b 6cbc c63b 89bd 963b
00000010: 965d c73b 9b12 b03b 5070 bd3b 1485 c03b
00000020: 2e05 193c 77f7 c33b

Parameter194_quantized u1 [1, 10]
78 128 186 150 0 255 68 74
202 69
00000000: 4e80 ba96 00ff 444a ca45

Parameter5_quantized i1 [8, 1, 5, 5]
-1 -30 -63 -8 18 -74 -59 -6
96 33 -61 7 127 69 -55 -20
69 74 -37 -76 5 28 -27 -59
-36 -9 49 112 95 11 -23 -62
-1 118 90 -34 -73 -36 80 83
-127 -86 -39 51 74 -85 -51 -15
-3 64 -3 14 33 47 90 44
54 50 43 32 -61 -10 -19 -23
-32 -127 -93 -70 -81 -59 -26 -44
-46 -19 -8 -79 -89 -87 -21 -59
-127 -56 -15 44 43 -104 -6 33
11 61 25 99 58 -3 48 87
94 8 56 91 -40 -23 0 -42
-30 17 38 -29 -42 -104 -11 76
-3 -88 -105 -21 26 51 8 -2
2 46 116 127 44 -29 -58 -33
9 25 32 -95 -127 -102 -67 94
60 -44 -60 -37 38 114 63 22
-19 10 52 41 81 39 22 127
-49 -104 -48 83 111 -93 -97 -56
94 68 -104 -69 -20 63 26 -39
-80 -35 79 42 16 30 -10 -5
-30 21 52 76 37 84 44 71
127 -26 44 30 11 30 6 -31
-27 -44 -112 -8 -43 -96 -64 -43
00000000: ffe2 c1f8 12b6 c5fa 6021 c307 7f45 c9ec
00000010: 454a dbb4 051c e5c5 dcf7 3170 5f0b e9c2
00000020: ff76 5ade b7dc 5053 81aa d933 4aab cdf1
00000030: fd40 fd0e 212f 5a2c 3632 2b20 c3f6 ede9
00000040: e081 a3ba afc5 e6d4 d2ed f8b1 a7a9 ebc5
00000050: 81c8 f12c 2b98 fa21 0b3d 1963 3afd 3057
00000060: 5e08 385b d8e9 00d6 e211 26e3 d698 f54c
00000070: fda8 97eb 1a33 08fe 022e 747f 2ce3 c6df
00000080: 0919 20a1 819a bd5e 3cd4 c4db 2672 3f16
00000090: ed0a 3429 5127 167f cf98 d053 6fa3 9fc8
000000a0: 5e44 98bb ec3f 1ad9 b0dd 4f2a 101e f6fb
000000b0: e215 344c 2554 2c47 7fe6 2c1e 0b1e 06e1
000000c0: e5d4 90f8 d5a0 c0d5

Parameter5_scale f4 [8]
0.008023343 0.004469895 0.007658907 0.0037540384 0.0053800307 0.0057738656 0.0044053914 0.004465675
00000000: 5774 033c 3278 923b 92f7 fa3b 5006 763b
00000010: f84a b03b b232 bd3b 1a5b 903b cc54 923b

Parameter87_quantized i1 [16, 8, 5, 5]
-14 -26 -2 -36 31 24 -47 -76
-5 19 11 -3 -18 -42 -32 20
0 23 -51 -33 1 71 54 -15
-36 -119 -76 -73 23 25 3 -64
-18 6 -14 48 66 -5 -38 -12
-19 52 51 -41 8 -39 32 30
14 16 -44 -38 22 33 -38 -35
-58 -40 -17 -24 -53 -62 -61 -24
18 -73 -29 -94 -38 -9 8 25
-31 -53 -63 29 -13 -7 -6 8
13 0 29 -25 -15 22 7 -72
-80 -59 5 19 -10 -86 -36 -3
33 48 -19 15 49 -18 -39 -87
-29 26 84 17 -63 -61 -24 10
34 -40 -40 -119 -10 15 7 -5
-34 -46 -27 10 4 40 6 -95
-63 -46 47 127 75 -35 -61 -42
-21 72 29 18 -118 -87 -10 13
32 -15 -38 -75 -60 -9 15 -48
-81 -12 -69 28 55 -28 -76 -42
-24 1 15 13 -45 7 18 69
17 4 -27 -30 64 57 -25 -70
41 15 -7 28 -16 -21 -16 14
24 17 -43 -39 6 8 -29 8
-36 -64 -76 37 22 -35 -41 -49
23 66 -6 -4 -49 -12 -4 -11
42 78 13 -121 -24 46 63 -43
-59 -13 28 67 -26 -62 -41 -31
-1 -113 -95 -127 -10 -44 -26 -20
-82 -18 -32 11 42 -12 -29 2
6 71 -3 -53 -56 7 -47 -4
-10 -26 -68 -78 -57 -17 29 -32
00000000: f2e6 fedc 1f18 d1b4 fb13 0bfd eed6 e014
00000010: 0017 cddf 0147 36f1 dc89 b4b7 1719 03c0
00000020: ee06 f230 42fb daf4 ed34 33d7 08d9 201e
00000030: 0e10 d4da 1621 dadd c6d8 efe8 cbc2 c3e8
00000040: 12b7 e3a2 daf7 0819 e1cb c11d f3f9 fa08
00000050: 0d00 1de7 f116 07b8 b0c5 0513 f6aa dcfd
00000060: 2130 ed0f 31ee d9a9 e31a 5411 c1c3 e80a
00000070: 22d8 d889 f60f 07fb ded2 e50a 0428 06a1
00000080: c1d2 2f7f 4bdd c3d6 eb48 1d12 8aa9 f60d
00000090: 20f1 dab5 c4f7 0fd0 aff4 bb1c 37e4 b4d6
000000a0: e801 0f0d d307 1245 1104 e5e2 4039 e7ba
000000b0: 290f f91c f0eb f00e 1811 d5d9 0608 e308
000000c0: dcc0 b425 16dd d7cf 1742 fafc cff4 fcf5
000000d0: 2a4e 0d87 e82e 3fd5 c5f3 1c43 e6c2 d7e1
000000e0: ff8f a181 f6d4 e6ec aeee e00b 2af4 e302
000000f0: 0647 fdcb c807 d1fc f6e6 bcb2 c7ef 1de0

Parameter87_scale f4 [16]
0.003559315 0.0032478024 0.004006755 0.0032128463 0.0032658358 0.0035228303 0.0038680523 0.0027812086
0.004194154 0.003550602 0.0030797396 0.0037046631 0.0022608046 0.0044466234 0.0029458613 0.0034045004
00000000: 6643 693b 15d9 543b 194b 833b 9e8e 523b
00000010: a207 563b 49df 663b 267f 7d3b f044 363b
00000020: 1d6f 893b 37b1 683b 75d5 493b efc9 723b
00000030: 022a 143b fbb4 913b 5a0f 413b 0a1e 5f3b
